Project2MnistClassification.pt (torch, 422807 bytes, 6 tensors)

linear1.weight f4 [120, 784]
0	0x3d1bd357	0.038043346
1	0x3d22cfa7	0.039748814
2	0xbbbbd4ed	-0.00573217
3	0x3d0ffedd	0.035155166
4	0x3cb0f641	0.021601798
5	0x3d2a8e7a	0.041639782
6	0xbc8f82b7	-0.017518384
7	0x3d293d85	0.041318435
8	0xbc33cb05	-0.010973697
9	0xbc3578c0	-0.011076152
10	0xbbf427c2	-0.0074510286
11	0x3d0a6622	0.033788808
12	0xbb82d430	-0.00399258
13	0x3d1f1bbc	0.03884481
14	0xbcc4c955	-0.024021784
15	0x3c32f761	0.010923238
16	0x3c96eb64	0.01842279
17	0x3c7eafcf	0.015544846
18	0x3d127e0b	0.035764735
19	0x3d18d2d9	0.037310455
20	0x3c6372c1	0.01388234
21	0x3ce69fc3	0.028152352
22	0x3bbaa836	0.005696322
23	0x3c85c4ff	0.016329287
24	0x3cddde13	0.027083432
25	0xbc0a1d72	-0.008429872
26	0x3d0477cd	0.032340813
27	0x3c01c586	0.007920628
28	0x3ca86783	0.02055717
29	0xbc44371c	-0.01197603
30	0x3d1b5b76	0.03792902
31	0x3ca44346	0.02005161
32	0xbb8c114b	-0.0042745224
33	0x3d06892e	0.03284567
34	0x3c8d94d2	0.017282877
35	0x3c4ba7c6	0.012430137
36	0x3ca06881	0.019581081
37	0xbcdd0d77	-0.02698396
38	0xba074636	-0.00051603036
39	0xbc2b54a9	-0.010457196
40	0x3ce3065a	0.02771299
41	0x3d1e0402	0.03857804
42	0xbbaa682d	-0.005200407
43	0x3cdd7fd0	0.027038485
44	0xbbf12283	-0.0073588504
45	0x38d18e80	9.992439e-05
46	0xbcb69d3a	-0.022291768
47	0x3d02cad0	0.0319317
48	0x3c637866	0.013883686
49	0x3d26c782	0.04071761
50	0x3c1ffd5b	0.0097649945
51	0xbce03345	-0.027368197
52	0xbb0db7da	-0.0021624477
53	0x3c9512b9	0.018197404
54	0x3cd6afb3	0.026206827
55	0x3d2e2da2	0.042523988
56	0x39eae431	0.00044801974
57	0xb9ed0a28	-0.0004521173
58	0xbce0a23d	-0.027421111
59	0xbb11bb12	-0.0022236747
60	0x3d2a7c79	0.041622613
61	0xbcaa4918	-0.020786807
62	0x3d0071fc	0.031358704
63	0xbc53bf6b	-0.012924056
64	0x3bc1b4c8	0.0059114434
65	0x3d2c0061	0.04199255
66	0x3a824ca0	0.0009941049
67	0x3c110621	0.008851559
68	0x3c879a16	0.016552966
69	0x3d07903c	0.033096537
70	0x3bac5398	0.0052589886
71	0xba911a96	-0.0011070545
72	0x3d2d1caf	0.042263683
73	0xbc4d5a19	-0.012533688
74	0x3d211c0d	0.039333392
75	0x3ccc21f7	0.02491854
76	0xbc83077a	-0.015994776
77	0x3c610710	0.013734594
78	0x3cb0c6f5	0.021579245
79	0x3cf1cd45	0.029516825
80	0xbc3a3500	-0.011365175
81	0x3cbe7b7e	0.023252245
82	0xbc71bb41	-0.0147541175
83	0x3d1d04f1	0.03833479
84	0x3c9e4c11	0.01932338
85	0xbc095429	-0.008381882
86	0x3d251354	0.040301636
87	0x3d251e02	0.04031182
88	0xbbc71664	-0.006075667
89	0x3bc9f208	0.0061628856
90	0x3ceefdd1	0.029173763
91	0x3d130255	0.035890896
92	0xbcb0dd85	-0.021590004
93	0xbcd2ec88	-0.025747553
94	0x3c36c256	0.011154732
95	0x3ce46f2a	0.027885038
96	0xbcc52eec	-0.024070226
97	0x3c7bc639	0.015367084
98	0x3cc04188	0.023468748
99	0xbc71c5ad	-0.014756602
100	0x3cc56d06	0.024099838
101	0xbc03cd96	-0.008044621
102	0x3af38c64	0.0018581268
103	0xbbc24b1a	-0.005929363
104	0xbccb8864	-0.02484531
105	0xbcd42cd9	-0.025900291
106	0x3beeeedb	0.0072916574
107	0x3c3cb3bd	0.011517462
108	0x3cb136d1	0.021632584
109	0xbb6cebdb	-0.0036151323
110	0x3c844770	0.016147345
111	0xbcdb866b	-0.026797494
112	0xbb649892	-0.0034880978
113	0xbc92fe21	-0.017943444
114	0x3bc1f351	0.005918898
115	0x3c823e15	0.015898744
116	0x3d2cd601	0.042196278
117	0x3cb320b2	0.021866176
118	0x3ca4496c	0.020054542
119	0xbcca49b7	-0.024693353
120	0x3ce81eaf	0.028334944
121	0x3d2c802e	0.04211443
122	0x3d1901f0	0.037355363
123	0xbcadc886	-0.021213781
124	0x3c35924e	0.011082245
125	0xbc77d8d9	-0.015127384
126	0xbc4e55ee	-0.012593729
127	0xbb718237	-0.0036851296
128	0x3d04dba3	0.032436024
129	0xbb87d8ea	-0.004145731
130	0xbbe2ca9b	-0.006921125
131	0x3abfbf61	0.0014629179
132	0xbc668a2b	-0.014071028
133	0x3bc029e4	0.0058643688
134	0x3b84135a	0.004030627
135	0xbbd6312a	-0.0065366225
136	0x3cf559ca	0.029950041
137	0x3b6a2b16	0.0035731248
138	0x3ba331db	0.0049803085
139	0xbc8a88fe	-0.016911026
140	0x3caf1063	0.021370118
141	0x3be4d49b	0.0069833524
142	0x3ca2d0e3	0.019874996
143	0xbc49d120	-0.012317926
144	0x3d078848	0.033088952
145	0xbc3f1712	-0.011663215
146	0x3b82460f	0.003975637
147	0xbc2dda45	-0.010611122
148	0x3d08ef66	0.033431433
149	0xbd056496	-0.03256663
150	0x3c948df7	0.0181341
151	0xbcfad3fa	-0.030618656
152	0xbcdc4396	-0.026887696
153	0xbc0f4c93	-0.008746284
154	0x3cc254fb	0.023722162
155	0x3b6f8ad3	0.0036551252
156	0xbcf05cbe	-0.029341098
157	0xbc890521	-0.016726078
158	0xbb5ec576	-0.0033992208
159	0xbcca3aa1	-0.02468616
160	0x3ca3e786	0.02000786
161	0xbcd7830e	-0.026307609
162	0xbacbb98a	-0.0015542966
163	0x3d0c194f	0.034203824
164	0xbcc6e211	-0.024277719
165	0x3d088e2b	0.033338707
166	0x3bfbf100	0.0076886415
167	0x3c5a4cab	0.013323943
168	0x3c332abc	0.010935482
169	0x3bec7d9b	0.007217122
170	0x3d0fe0af	0.035126384
171	0xbce56a78	-0.02800487
172	0x3baa76c9	0.0052021486
173	0x3c62c68b	0.013841282
174	0x3ccb6c43	0.024831897
175	0xbcb2b2e4	-0.021813817
176	0xbc95c755	-0.018283525
177	0x3cbf2644	0.023333676
178	0x3b25a7f0	0.00252771
179	0xbc54b307	-0.012982137
180	0xbacb5648	-0.0015513385
181	0xbc38cf9d	-0.011279968
182	0x3c8af1e0	0.016961038
183	0xbc94bc0b	-0.018156072
184	0xbd09629d	-0.03354131
185	0x3c7db400	0.01548481
186	0x3c44c232	0.01200919
187	0x3d109ac4	0.035303846
188	0x3a7b9c28	0.0009598159
189	0x3cc1ff30	0.023681253
190	0x3d122855	0.035682995
191	0xbbc4877a	-0.0059975954
192	0x3cb29fcf	0.021804718
193	0x3c6e6ef4	0.0145528205
194	0xbcd59661	-0.026072683
195	0xbcc31398	-0.023813054
196	0x3ca8fdd5	0.020628849
197	0x3c3e96cf	0.011632635
198	0xbcd4b877	-0.025966866
199	0xbcab7a28	-0.020932272
200	0xbcce8218	-0.025208518
201	0x3c39e6d2	0.011346536
202	0xbcda14fd	-0.026621336
203	0x3cb3b29f	0.02193576
204	0xbc0f9807	-0.0087642735
205	0x3aed12de	0.0018087288
206	0xbc741bad	-0.014899177
207	0x395fa8e8	0.0002132986
208	0xbccbe697	-0.024890227
209	0x3cde768a	0.027156133
210	0x3c82c248	0.015961781
211	0x3c19e583	0.009393099
212	0xbb9553df	-0.0045571174
213	0xbd1923f1	-0.037387792
214	0xbc8cf57e	-0.017206904
215	0xbccae239	-0.024766074
216	0x3d210d50	0.039319336
217	0xbca04785	-0.019565353
218	0x3b654150	0.0034981556
219	0x3cc13adc	0.023587637
220	0x3c1d0081	0.00958264
221	0xbc5b6b82	-0.013392331
222	0x3ce18ea3	0.027533835
223	0xbc653191	-0.013988868
224	0x3a0ca8a6	0.0005365707
225	0x3c2846e5	0.010270809
226	0xbc053aa4	-0.008131657
227	0x3d0a2b51	0.033732716
228	0xbbacf625	-0.005278366
229	0xbc36f6a7	-0.011167205
230	0xbcbd406d	-0.02310201
231	0x3d1d1754	0.038352326
232	0xbcb24b6d	-0.021764481
233	0x3c4ef5e2	0.012631865
234	0x3d0cbe20	0.034361005
235	0xbc0ff991	-0.008787529
236	0xbc269828	-0.010168113
237	0xbb826c3f	-0.003980189
238	0x3bd6264d	0.0065353275
239	0x3c8bf635	0.017085174
240	0x3ab5751c	0.0013844105
241	0x3be231cd	0.0069029094
242	0xbc6371e5	-0.013882135
243	0x3c22fb6a	0.009947637
244	0xbcdcae71	-0.026938649
245	0xbc96aee8	-0.018393949
246	0x3d0cf44a	0.03441266
247	0x3c9c138a	0.019052286
248	0x3c3bf890	0.011472836
249	0x3ba85b0c	0.0051378068
250	0x3bdd84ed	0.0067602308
251	0x3cc3481a	0.023838092
252	0xbc05c40d	-0.008164418
253	0xbccdb96a	-0.025112826
254	0xbbc83d2c	-0.006110808
255	0x3c8e39c7	0.017361535

linear1.bias f4 [120]
0	0xbcaaf087	-0.020866646
1	0x3b80d9db	0.0039322204
2	0xbd11322b	-0.035448235
3	0x3c2687a9	0.01016418
4	0x3c80846a	0.01568814
5	0x3c8018df	0.01563686
6	0xbc04f406	-0.00811482
7	0xbca63b66	-0.020291995
8	0xba92d9be	-0.0011203808
9	0x3bc725ed	0.006077519
10	0x3bfe8ecc	0.0077684876
11	0xbd55bad2	-0.05218012
12	0xbab1d75f	-0.0013568214
13	0xbd1b0eea	-0.03785602
14	0xbc3bcd61	-0.01146254
15	0xbd13d674	-0.03609319
16	0xbc5fe044	-0.013664309
17	0xbb7b244a	-0.003832119
18	0x3c8bbd6e	0.0170581
19	0x3cedd5ee	0.029032674
20	0x3ca0617a	0.01957773
21	0xbd0d0136	-0.034424983
22	0x3b15ea0c	0.0022875099
23	0x3b422e5d	0.0029629685
24	0x3cebf465	0.02880306
25	0xbb7985f9	-0.0038074239
26	0xbcf8fe13	-0.03039459
27	0x3cddcd02	0.027075294
28	0xbd157f43	-0.03649832
29	0xbd2427f7	-0.040077176
30	0x3c0f98ea	0.008764485
31	0xbcaa0555	-0.020754496
32	0xbd22a101	-0.039704327
33	0xbb756677	-0.0037445107
34	0x3c52dac0	0.012869537
35	0x3c745ccf	0.014914705
36	0x3ce705e0	0.028201044
37	0x3c0831a4	0.0083126165
38	0xbd16d436	-0.036823474
39	0xbc671706	-0.01410461
40	0x3ae65870	0.0017573964
41	0xbd0a7ef1	-0.033812467
42	0x3c3a9d84	0.011390094
43	0x3d066c16	0.032817923
44	0x3cf4778f	0.029842166
45	0x3d1b91e2	0.03798092
46	0xbcb994cb	-0.022653958
47	0xbc2fc758	-0.01072868
48	0xbcfff416	-0.031244319
49	0xbc92c2d4	-0.017915167
50	0xbccbde61	-0.024886312
51	0xbb06de33	-0.0020579218
52	0xba1462c2	-0.0005660468
53	0xbc0f51af	-0.008747502
54	0xbc5a05b8	-0.0133070275
55	0x3becf3a8	0.0072311945
56	0xbca020db	-0.019546917
57	0xbd0353dc	-0.032062396
58	0x3c15e244	0.009148184
59	0x3c8872f3	0.016656375
60	0x3c839a23	0.016064709
61	0x3cb0a88f	0.02156475
62	0x3bc6f665	0.006071853
63	0xbc4416c0	-0.011968315
64	0xbc9e1769	-0.019298272
65	0xbd0e25bb	-0.03470395
66	0xbd1b671c	-0.03794013
67	0x3ca284e7	0.019838763
68	0xbc422663	-0.011849972
69	0x3ccf8769	0.025333123
70	0xbce91057	-0.028450174
71	0xbcfc49c8	-0.0307969
72	0x3cc0df00	0.023543835
73	0xbcf99909	-0.03046848
74	0x3d258848	0.04041317
75	0xbca52f4b	-0.020164153
76	0xbca886c2	-0.02057207
77	0xbb034c2a	-0.002003441
78	0x3c5fd603	0.013661864
79	0x3cb7d345	0.022439608
80	0xbcbe18f6	-0.023205262
81	0xbc5a1b5a	-0.013312185
82	0x3c76a901	0.015054942
83	0xbd2722fa	-0.04080484
84	0xbc85778f	-0.016292362
85	0xbc4ef930	-0.012632653
86	0x3aa93294	0.001290875
87	0xbd350e8f	-0.044203337
88	0x3cc5f038	0.024162397
89	0xbc27253c	-0.010201748
90	0xbbebdd64	-0.0071980227
91	0xbc37fd0b	-0.011229764
92	0xbcee9773	-0.029124951
93	0xbd1b574b	-0.037925046
94	0x3abe2825	0.0014507814
95	0xbd050b5b	-0.032481533
96	0x3c688bda	0.014193499
97	0x3d1c6a6a	0.03818742
98	0x3a863474	0.0010239021
99	0x3c7ce9b6	0.01543658
100	0x3c577612	0.013150709
101	0xbcfef828	-0.03112419
102	0x3b3129ab	0.0027032893
103	0x3d2e83ee	0.042606287
104	0x3be364aa	0.0069394903
105	0xbbc421d7	-0.0059854793
106	0x3c007887	0.007841236
107	0xbb3eb6ef	-0.0029100736
108	0x3cb49ddb	0.022047928
109	0xbaff0780	-0.0019457191
110	0xbd330fa7	-0.0437161
111	0xbc89e503	-0.016832834
112	0xbcf566cb	-0.029956242
113	0xbce37e55	-0.0277702
114	0x3b79fac9	0.0038143864
115	0xbd0f5192	-0.0349899
116	0x3be2ac61	0.006917522
117	0xbc95b189	-0.018273132
118	0x3c0ff86a	0.008787254
119	0x3c1f7a56	0.009733757

linear2.weight f4 [84, 120]
0	0x3d985205	0.07437519
1	0x3d19255a	0.037389137
2	0xbc543b33	-0.012953567
3	0x3d992414	0.074775845
4	0x3d90b92b	0.07066568
5	0x3e5fe087	0.21862994
6	0xbd012843	-0.031532537
7	0x3dcccd60	0.1000011
8	0xbc57677a	-0.013147229
9	0x3e7a19a7	0.24423848
10	0x3d8f3900	0.06993294
11	0xbc4bb6a8	-0.012433685
12	0xbd21c4b6	-0.03949424
13	0xbb853d9f	-0.0040661837
14	0xbe09965e	-0.13436267
15	0x3c13a7bb	0.009012158
16	0x3bbc0e49	0.0057390076
17	0x3e10a018	0.14123571
18	0x3c440048	0.011962958
19	0xbe32804c	-0.17431754
20	0x3c316039	0.010826164
21	0xbdd663cc	-0.104682535
22	0x3e3ff2a1	0.187449
23	0x3dc20f5a	0.09475584
24	0xbbe1379f	-0.0068730856
25	0xbe11d53a	-0.14241496
26	0xbd02d373	-0.031939935
27	0x3ccfa6cf	0.025348095
28	0xbd50300f	-0.050827082
29	0x3d93b618	0.07212466
30	0xbd9484eb	-0.072519146
31	0xbd8d2a98	-0.0689289
32	0xbc7bac3f	-0.015360891
33	0x3dfc105a	0.12307806
34	0xbb4cb489	-0.0031235537
35	0x3d6c9bae	0.057765655
36	0xbe53fe88	-0.20702565
37	0xbd43157b	-0.047627907
38	0x3d47ed6e	0.048810415
39	0x3d9d5968	0.076830685
40	0xbda58e20	-0.08083749
41	0xbe08f678	-0.1337527
42	0xbdb35550	-0.087565064
43	0xbdca5a77	-0.09880536
44	0xbdce97b3	-0.10087528
45	0xbdbede22	-0.09319712
46	0x3d99573d	0.074873425
47	0x3d43c29f	0.047793027
48	0x3db27c5b	0.08715125
49	0x3d832eff	0.06405448
50	0x3c8057c6	0.015666854
51	0x3c8b0e36	0.01697455
52	0xbe16eb95	-0.14738305
53	0xbd531861	-0.05153692
54	0xbcfe2cb5	-0.031027177
55	0xbd19290a	-0.037392654
56	0x3cff8bc8	0.031194583
57	0xbe0c7fe1	-0.13720657
58	0x3d3dfdca	0.04638461
59	0x3d4295e1	0.047506217
60	0xbda97c72	-0.08275689
61	0x3d618c74	0.055065587
62	0xbde2d773	-0.1107625
63	0xbd2bf3d2	-0.041980572
64	0x3d4780e8	0.04870692
65	0x3dae88ce	0.08522187
66	0x3c4a1187	0.01233328
67	0x3daa3145	0.08310179
68	0xbd6af4f5	-0.057362515
69	0xbd704774	-0.058661893
70	0xbe46e463	-0.1942306
71	0xbde3b7dc	-0.11119053
72	0x3d119685	0.035543937
73	0xbdc9de27	-0.09856825
74	0x3d8d9fe9	0.06915266
75	0x3d90d833	0.07072487
76	0xbdaf2cbe	-0.08553456
77	0x3e6c0e5d	0.23052354
78	0xbd656ec7	-0.05601385
79	0x3c8ba0a6	0.017044377
80	0x3d93f2fa	0.072240785
81	0x3da0e7ff	0.0785675
82	0xbd5fd3b3	-0.05464525
83	0x3c575f37	0.01314526
84	0x3d3f3ce0	0.046688914
85	0x3dbffede	0.09374784
86	0xbd868ce5	-0.06569842
87	0x3cbde3e8	0.023179963
88	0x3d85b9eb	0.06529602
89	0xbdc5d0e1	-0.09658981
90	0xb9ed7bec	-0.00045296492
91	0x3db5a6f7	0.08869737
92	0x3d727942	0.05919767
93	0xbd00fcca	-0.03149108
94	0xbd2b1445	-0.041767377
95	0xbd633256	-0.055467926
96	0xbce516df	-0.027965007
97	0x3b1be864	0.0023789639
98	0x3d518679	0.051153634
99	0x3d36ec60	0.04465902
100	0xbba92b4b	-0.0051626316
101	0x3d80327d	0.0625963
102	0x3d4537d2	0.048148938
103	0x3e0ae630	0.13564372
104	0x3df16306	0.11786465
105	0x3d141e1f	0.03616154
106	0xbdacb60d	-0.08433161
107	0x3dc127d4	0.09431425
108	0x3dc1e3f9	0.094673105
109	0xbd7d2cdd	-0.061810363
110	0xbe0361f6	-0.12830338
111	0xbd57f208	-0.052721053
112	0xbdbd92c0	-0.09256506
113	0xbe997487	-0.29971716
114	0x3e091253	0.13385896
115	0xbc631348	-0.0138595775
116	0x3e85d440	0.26138496
117	0xbe25cebe	-0.16192147
118	0xbcafc943	-0.021458274
119	0x3d9e42fc	0.0772762
120	0xbcbad900	-0.022808552
121	0xb9a1c173	-0.00030852444
122	0x3d13751a	0.03600035
123	0xbd00c6d1	-0.031439606
124	0xbdb9927c	-0.09061143
125	0xbdaa4a2b	-0.08314928
126	0xbc868846	-0.016422402
127	0x39d2fbea	0.00040242012
128	0xbc8486f4	-0.016177632
129	0x3b712d47	0.003680067
130	0xbd7b029e	-0.061281793
131	0xbdba833b	-0.091070615
132	0xbceb3a91	-0.02871445
133	0x3ceb8b87	0.028753055
134	0xbd814714	-0.06312385
135	0x3d9a8cb9	0.07546372
136	0x3d15b276	0.036547147
137	0x3d1d8732	0.03845901
138	0xbdbed345	-0.0931764
139	0x3d0f1061	0.03492773
140	0x3c963557	0.018335981
141	0x3d44a0e4	0.048005
142	0x3ce4b0c6	0.027916323
143	0xbd6e901a	-0.058242895
144	0x3d7e3e05	0.062070865
145	0xbcb43325	-0.021997044
146	0xbcea12f2	-0.028573487
147	0xbd8b94fe	-0.068155274
148	0x3db5a4a4	0.08869293
149	0xbd49f376	-0.049304448
150	0x3c92a538	0.017901048
151	0x3c19e719	0.009393477
152	0x3d0f349f	0.034962293
153	0xbd9a285b	-0.075272284
154	0x3cbc586d	0.022991383
155	0xbd35efd5	-0.044418175
156	0xbc33854d	-0.010957074
157	0xbcdae9d4	-0.026722826
158	0xbc9e1f12	-0.019301925
159	0xbce5fbcd	-0.02807417
160	0xbd8b3487	-0.06797128
161	0xbbcf03df	-0.0063176
162	0xbc4bec42	-0.012446465
163	0xbd89e0ed	-0.06732354
164	0xbdcab9a4	-0.098986894
165	0xbb364da3	-0.0027817271
166	0x39e3237a	0.00043323246
167	0x3cc05cfb	0.023481837
168	0x3d037aba	0.032099463
169	0x3d089f7a	0.033355214
170	0x3da55885	0.080735244
171	0xbd227c47	-0.0396693
172	0xbca0ad62	-0.019613925
173	0x3d83e6b6	0.06440489
174	0xbdb29e0a	-0.0872155
175	0x3cc02611	0.023455651
176	0xbda3088a	-0.07960613
177	0xbd8d5279	-0.06900496
178	0x3d0fc212	0.03509719
179	0xbd878fd1	-0.06619228
180	0xbd8cdea8	-0.06878406
181	0xbd82e2fd	-0.06390951
182	0x3bb71360	0.0055870265
183	0xbd6edc36	-0.05831548
184	0xbc5a25b0	-0.013314649
185	0xbdb3feb8	-0.08788818
186	0xbbe224d0	-0.006901361
187	0xbd633698	-0.055471987
188	0xbacbaee2	-0.001553979
189	0xbda6199b	-0.081103526
190	0xbc19b9dc	-0.009382691
191	0x3cdcf0fa	0.026970375
192	0x3cc1dc00	0.023664474
193	0x3c4d1d80	0.01251924
194	0xbda1fa8c	-0.07909116
195	0x3dab86cd	0.083753206
196	0x3db2ab90	0.08724129
197	0xbd38199b	-0.044946294
198	0xbc44e414	-0.012017269
199	0xbda5dd7a	-0.08098884
200	0xbd31c21f	-0.04339802
201	0x3d0f274b	0.034949582
202	0xbd2364bd	-0.039890993
203	0x3d64c77e	0.055854313
204	0xbda102c8	-0.078618586
205	0xbcc54359	-0.024079965
206	0xbd734552	-0.05939228
207	0xbc3efad5	-0.011656483
208	0xbd490047	-0.04907253
209	0x3d18023a	0.0371115
210	0xbd879245	-0.066196956
211	0xbce0afca	-0.027427573
212	0x3d319795	0.04335745
213	0xbd02739a	-0.031848527
214	0x3d8700a8	0.06591922
215	0xbd9c1261	-0.07620693
216	0x3cbfdb20	0.023419917
217	0xbda583ba	-0.080817655
218	0xbce9de71	-0.028548451
219	0xbd5b5a54	-0.05355294
220	0x3d478710	0.04871279
221	0xbd8c2a7c	-0.06844041
222	0x3d03e147	0.032197263
223	0x3ca557e9	0.02018352
224	0xbd00cd6c	-0.031445906
225	0x3d87df91	0.06634439
226	0x3d329657	0.043600406
227	0xbdc1d3c0	-0.09464216
228	0xbd8fd26f	-0.07022559
229	0xbda6a2ed	-0.081365444
230	0xbdb04554	-0.08606973
231	0xbd1caf69	-0.03825322
232	0xbdd73178	-0.10507482
233	0xbdb5b7b9	-0.08872933
234	0x3c1e3843	0.0096569685
235	0x3c5bf5c2	0.013425292
236	0x3c674205	0.014114861
237	0x3b3ed372	0.002911773
238	0xbda779c9	-0.081775256
239	0xbdd6c79d	-0.10487292
240	0x3bfac752	0.0076531554
241	0x3d264712	0.04059512
242	0xbc43d9a7	-0.011953748
243	0x3d261118	0.040543646
244	0x3da16da4	0.078822404
245	0xbdd4b5a3	-0.10386207
246	0x3d811d01	0.0630436
247	0xbc9a4e8f	-0.018836288
248	0xbca6151a	-0.020273734
249	0xbe69ad0b	-0.22819917
250	0xbda2385f	-0.07920908
251	0x3c86fef5	0.016478995
252	0x3d3087b0	0.04309815
253	0x3d897ad2	0.06712879
254	0xbd944fcc	-0.072417825
255	0x3cd238ae	0.025661793

linear2.bias f4 [84]
0	0x3cdb775a	0.02679031
1	0xbdbb3217	-0.09140413
2	0xbd374163	-0.044740092
3	0x3c733fff	0.014846801
4	0xbd8e747f	-0.069558136
5	0xbdeb0721	-0.11475969
6	0x3ca373f4	0.019952752
7	0xbdcff582	-0.10154249
8	0xbd32519f	-0.04353487
9	0xbd400779	-0.046882126
10	0xbd6cc6d4	-0.057806805
11	0xbd9303c3	-0.07178452
12	0x3dc23be4	0.094840795
13	0x3d2a8958	0.041634887
14	0x3d445ad4	0.047938183
15	0x3c92a58f	0.01790121
16	0xbd1f1f13	-0.038847994
17	0xbd62b5d8	-0.0553492
18	0x3e1291fe	0.14313504
19	0xbcaf5940	-0.021404862
20	0x3cea66fd	0.028613562
21	0x3e145c0d	0.1448824
22	0xbdcefe35	-0.1010708
23	0xbd7e9226	-0.062151097
24	0xbb3def54	-0.0028981762
25	0xbde5e11d	-0.112245776
26	0x3da334a1	0.079690225
27	0xbd6d6f1a	-0.057967283
28	0xbd7059fb	-0.058679562
29	0x3dc0fa51	0.09422744
30	0x3d26e408	0.04074481
31	0x3d3d120f	0.0461598
32	0x3dd42f9d	0.10360644
33	0xbcbe354a	-0.02321877
34	0xbdb96b7f	-0.090537064
35	0xbd7ef2b8	-0.062243193
36	0x3d1b426b	0.037905138
37	0xbc83f888	-0.01610972
38	0x3d4d761b	0.050161462
39	0xbd9e6393	-0.07733836
40	0x3dff39f3	0.12462225
41	0x393dbed7	0.00018095538
42	0xbdc85030	-0.097809196
43	0x3e1f8284	0.15577132
44	0x3da0d7fb	0.07853695
45	0xbdcaa14e	-0.09894048
46	0x3bea9ce0	0.0071598142
47	0xbde563fb	-0.112007104
48	0xbe188af7	-0.14896761
49	0x3dc5c516	0.09656732
50	0xbd0f820b	-0.035036128
51	0xbd76251c	-0.060093984
52	0x3da5816c	0.08081326
53	0x3d8b5c1e	0.06804679
54	0x3d1143b6	0.035464965
55	0x3d896d6a	0.06710322
56	0x3c960652	0.01831356
57	0xbe133ada	-0.14377919
58	0x3dcd9e59	0.10039968
59	0x3af41797	0.0018622753
60	0xbd380ee1	-0.044936065
61	0xbd835f95	-0.06414715
62	0xbdae821a	-0.08520909
63	0xbde8f020	-0.11373925
64	0x3d66fbb4	0.056392387
65	0xbde4fc9f	-0.11180996
66	0x3dc2ef3e	0.09518288
67	0xbcf4c4de	-0.02987903
68	0x3d1ecc87	0.03876927
69	0xbd5b6c4d	-0.05357008
70	0xbd2cba0c	-0.042169616
71	0x3e13e685	0.14443405
72	0x3da228d1	0.07917941
73	0x3d94f778	0.072737634
74	0x3d8f063c	0.06983611
75	0xbdbe12d8	-0.09280938
76	0xbd1e9937	-0.038720336
77	0x3bd2c632	0.006432318
78	0xbd82a32d	-0.063787796
79	0xbc8d78f2	-0.017269585
80	0x3d45651e	0.048192136
81	0x3cb486c5	0.02203692
82	0x3dd18ac4	0.102315456
83	0x3c01fe3a	0.0079341475

linear3.weight f4 [10, 84]
0	0xbd56137a	-0.052264668
1	0xbb21c907	-0.0024686472
2	0xbbbfbf70	-0.0058516786
3	0x3d43f442	0.047840364
4	0xbe15c798	-0.1462692
5	0xbd506f15	-0.050887186
6	0xbd78661d	-0.060644258
7	0xbddd40f8	-0.108034074
8	0xbe3d62c2	-0.18494704
9	0x3e2d2c4d	0.1691143
10	0x3e7b3bc9	0.24534525
11	0xbebcc781	-0.3687096
12	0x3d09ad80	0.033612728
13	0xbe0c019f	-0.13672493
14	0xbdafed61	-0.08590198
15	0x3e2e6c7f	0.17033575
16	0xba97621b	-0.0011549623
17	0xbddcf26f	-0.10788428
18	0xbe91b556	-0.2845866
19	0x3bb608ab	0.0055552325
20	0xbe023a44	-0.12717539
21	0x3b93f744	0.0045155603
22	0x3dc84eca	0.09780653
23	0x3e31e7a1	0.17373516
24	0xbdc59d3b	-0.0964913
25	0x3d9b86f0	0.07594097
26	0x3b6647ec	0.0035138084
27	0xbdf1a8ec	-0.117997974
28	0x3e02ed56	0.12785849
29	0xbe010c6a	-0.12602392
30	0xbe973c1f	-0.29538056
31	0xbe5ace52	-0.21367767
32	0xbd1f4cbd	-0.038891543
33	0x3afd9f4a	0.001934984
34	0xbefc37ef	-0.49261424
35	0x3e15cf21	0.14629795
36	0xbdb2b055	-0.08725039
37	0x3d462653	0.048376393
38	0xbbcd9c3d	-0.0062747286
39	0xbd54a6f9	-0.05191705
40	0x3df5deb3	0.12005367
41	0xbd62d0f2	-0.055375047
42	0xbdb2addc	-0.08724567
43	0xbe61dfe0	-0.22058058
44	0x3dde5a72	0.10857095
45	0xbde12b89	-0.10994632
46	0xbe33396c	-0.17502373
47	0x3dad7663	0.08469846
48	0xbddd52b7	-0.10806792
49	0xbe1b0140	-0.15137196
50	0xbda381e0	-0.07983756
51	0x3d79fce0	0.061032176
52	0x3dc34227	0.09534102
53	0x3e1431be	0.144721
54	0x3de72a27	0.11287337
55	0x3dd5700c	0.10421762
56	0xbe28a807	-0.16470347
57	0xbdba3ec2	-0.09094001
58	0x3da4cc6d	0.080468036
59	0xbe9c7e7e	-0.30565256
60	0xbe4ade7a	-0.1981143
61	0x3e1b009d	0.15136953
62	0x3dca04de	0.098642096
63	0x3e1b37be	0.15157983
64	0x3d96c8ac	0.07362494
65	0x3de7f1c1	0.11325408
66	0xbe34c534	-0.17653352
67	0x3e3cda05	0.18442543
68	0x3a344975	0.0006877401
69	0xbe1e44e3	-0.15455966
70	0xbe4de0e9	-0.20105328
71	0xbd5b62a0	-0.053560853
72	0xbdcdd9d5	-0.10051314
73	0x3dd2bf98	0.1029045
74	0xbd4e8371	-0.05041832
75	0x3e2c4972	0.16824892
76	0x3e1f12fc	0.15534586
77	0xbebcddcf	-0.36887977
78	0x3dce0bef	0.1006087
79	0x3d8b43d5	0.06800047
80	0x3e2fc1f8	0.17163837
81	0x3e14e4e2	0.14540437
82	0xbcd7066d	-0.026248181
83	0xbdc561ca	-0.096377924
84	0xbeab5f23	-0.3347102
85	0xbd752299	-0.059847448
86	0xbe330a57	-0.17484413
87	0xbec50842	-0.38482863
88	0x3ec1f419	0.37881544
89	0xbd8bb15e	-0.068209395
90	0xbe0e06d9	-0.138698
91	0xbdac086d	-0.084000446
92	0x3d4db208	0.050218612
93	0xbcc03589	-0.023463028
94	0xbeacc86b	-0.33746657
95	0x3d35977c	0.04433392
96	0xbe37690d	-0.17911167
97	0xbe8efda8	-0.279279
98	0x3d8ade7b	0.06780716
99	0xbe493aa7	-0.1965128
100	0xbe36c3a6	-0.17848071
101	0xbe88d7a0	-0.2672701
102	0xbd25f3c6	-0.040515684
103	0xbe02d458	-0.12776315
104	0x3d7d34ae	0.061817817
105	0xbe66e0d0	-0.22546697
106	0x3e512c94	0.20427161
107	0x3e41156e	0.18855831
108	0x3e0dc240	0.13843632
109	0xbd2c7bb8	-0.042110175
110	0x3d56ae16	0.052412115
111	0x3cf0b6bb	0.029384008
112	0xbe7c558b	-0.24642007
113	0x3dad4eb5	0.08462278
114	0xbe54869f	-0.20754479
115	0x3d992df7	0.0747947
116	0x3d6706b8	0.056402892
117	0x3d0acf26	0.03388896
118	0xbcbacc32	-0.022802446
119	0x3e0abe0e	0.13549063
120	0xbda051fd	-0.07828138
121	0xbbeb5ac5	-0.0071824514
122	0xbe12016f	-0.1425836
123	0x3e20288e	0.1564047
124	0xbe90993c	-0.2824191
125	0x3e1e8876	0.15481743
126	0x3cb8e44c	0.022569798
127	0x3dbcec71	0.09224785
128	0x3d347846	0.044060014
129	0x3d5cc9f3	0.05390353
130	0xbcecb759	-0.02889602
131	0x3d1944f1	0.037419263
132	0x3dd26953	0.10273995
133	0x3e222326	0.1583372
134	0xbdddb830	-0.108261466
135	0x3e1eb21d	0.15497632
136	0xbe1df203	-0.15424351
137	0xbe3bbd37	-0.18333898
138	0xbea04c88	-0.3130839
139	0x3d8fe541	0.070261486
140	0xbd3e232f	-0.046420272
141	0x3e2a10be	0.16607949
142	0xbdd2a53b	-0.102854215
143	0xbe410119	-0.18848075
144	0x3de204ff	0.11036109
145	0x3e1bc2a7	0.15210973
146	0x3eb55322	0.35414988
147	0x3e0603dc	0.1308741
148	0x3d9c6550	0.07636511
149	0x3b8046bb	0.0039146817
150	0x3d913490	0.070901036
151	0x3dda7fb0	0.10668886
152	0xbd9c1684	-0.07621482
153	0x3e072dc0	0.13201046
154	0x3e4dd584	0.20100981
155	0xbd6c5631	-0.057699386
156	0xbd5f2fda	-0.054488994
157	0x3cf92850	0.03041473
158	0x3d609968	0.0548338
159	0x3d1ecc69	0.03876916
160	0xbe5ea03c	-0.21740812
161	0x3e1ba82c	0.15200871
162	0xbe933d6a	-0.28757793
163	0x3dcd6495	0.1002895
164	0xbdc78fe7	-0.09744244
165	0xbe622c47	-0.22087203
166	0x3e1f8e49	0.15581621
167	0xbcb032d2	-0.021508608
168	0xbd26798c	-0.04064326
169	0xbd80ea6d	-0.06294713
170	0x3e234f75	0.15948279
171	0xbd51d5a2	-0.051229127
172	0x3e28f9ec	0.16501588
173	0x3d61c870	0.055122793
174	0x3d9b9d82	0.075984016
175	0x3d137533	0.03600044
176	0x3d8b297b	0.06795021
177	0xbe794432	-0.2434242
178	0xbe672123	-0.22571234
179	0x3de2d152	0.11075081
180	0xbe1b4bbe	-0.15165612
181	0x3e1841a2	0.14868787
182	0xba48e429	-0.0007663393
183	0x3d938715	0.07203499
184	0xbd699aca	-0.057032384
185	0xbe17c958	-0.148229
186	0x3dcc100c	0.09963998
187	0x3da0c6c9	0.07850415
188	0x3dce57d7	0.10075348
189	0xbe4dd617	-0.201012
190	0xbd7236a5	-0.059134144
191	0xbc5a1bf1	-0.013312326
192	0x3d7edfdf	0.06222522
193	0xbe22848e	-0.15870878
194	0x3e27d388	0.16389287
195	0xbd3ac5a1	-0.04559863
196	0xbeaad7bb	-0.33367714
197	0xbeb1b1fc	-0.34706104
198	0x3c8a0633	0.01684866
199	0xbe9596ec	-0.29216707
200	0xbd6b3ff9	-0.057434056
201	0x3c13a37b	0.009011145
202	0x3d2a9d56	0.041653953
203	0x3e44428c	0.1916601
204	0xbe879e46	-0.2648794
205	0xbd5a1cb6	-0.053250037
206	0x3e0ec03e	0.13940522
207	0xbd2f4eb5	-0.04279967
208	0xbd3c3251	-0.045946423
209	0x3d0835af	0.03325432
210	0x3d39d553	0.045369457
211	0xbe6d3746	-0.23165616
212	0x3d884915	0.06654564
213	0x3e041a86	0.12900743
214	0xbd5953a4	-0.05305828
215	0x3c1d50c3	0.009601775
216	0x3e0137e7	0.12618981
217	0xbe815507	-0.25260183
218	0x3dea4444	0.11438802
219	0x3e8ebf47	0.27880308
220	0x3e112c85	0.14177139
221	0x3df4b04e	0.1194769
222	0x3d3d32f8	0.046191186
223	0xbe54724f	-0.2074673
224	0x3cf64446	0.030061852
225	0x3e1a49fb	0.15067284
226	0xbe0f1623	-0.13973288
227	0xbe29c41c	-0.16578716
228	0x3e143e31	0.14476849
229	0xbdab3db6	-0.0836138
230	0xbedab935	-0.42719427
231	0x3b924c17	0.004464637
232	0x3d7abc0b	0.061214488
233	0xbd2259a1	-0.039636258
234	0xbd60feab	-0.05493037
235	0x3d67c359	0.056582782
236	0xbd11cd4f	-0.03559619
237	0xbd642fb2	-0.05570955
238	0x3e446647	0.1917964
239	0xbdbcd6a4	-0.09220627
240	0xbe55e6f5	-0.20888884
241	0xbd99870c	-0.07496461
242	0xbd9fbcad	-0.07799659
243	0x3dd1dea5	0.10247544
244	0xbe079ff7	-0.13244615
245	0xbe9e9a02	-0.30976874
246	0x3dc000cd	0.09375153
247	0x3d58bce6	0.052914523
248	0x3e0bb33b	0.1364259
249	0xbc699405	-0.014256482
250	0x3dd9a259	0.106266685
251	0xbeb85f18	-0.3601005
252	0x3e0f76d6	0.14010176
253	0xbd4f9005	-0.050674457
254	0x3d20483a	0.03913138
255	0xbe44836f	-0.19190763

linear3.bias f4 [10]
0	0x3d7f08f1	0.062264387
1	0xbde5d80e	-0.1122285
2	0xbdfd2411	-0.12360395
3	0xbd09f865	-0.033684153
4	0x3dc7b531	0.097513564
5	0xbd91917d	-0.07107828
6	0xbd8869e3	-0.06660821
7	0xbe05ebd1	-0.13078238
8	0x3c875319	0.016519116
9	0x3ded3e80	0.115841866
